Title: relu_with_scaled_sigmoid_adam_0.0005_dropout_rate_0.1 


__________________________________________________________________________________________________
Layer (type)                    Output Shape         Param #     Connected to                     
==================================================================================================
input_1 (InputLayer)            (None, 75, 100, 1)   0                                            
__________________________________________________________________________________________________
input_2 (InputLayer)            (None, 75, 100, 1)   0                                            
__________________________________________________________________________________________________
conv_1a_1 (Conv2D)              (None, 73, 98, 32)   320         input_1[0][0]                    
__________________________________________________________________________________________________
conv_1b_1 (Conv2D)              (None, 73, 98, 32)   320         input_2[0][0]                    
__________________________________________________________________________________________________
conv_1a_2 (Conv2D)              (None, 71, 96, 32)   9248        conv_1a_1[0][0]                  
__________________________________________________________________________________________________
conv_1b_2 (Conv2D)              (None, 71, 96, 32)   9248        conv_1b_1[0][0]                  
__________________________________________________________________________________________________
pool_1a_2 (MaxPooling2D)        (None, 35, 48, 32)   0           conv_1a_2[0][0]                  
__________________________________________________________________________________________________
pool_1b_2 (MaxPooling2D)        (None, 35, 48, 32)   0           conv_1b_2[0][0]                  
__________________________________________________________________________________________________
drop_1a_2 (Dropout)             (None, 35, 48, 32)   0           pool_1a_2[0][0]                  
__________________________________________________________________________________________________
drop_1b_2 (Dropout)             (None, 35, 48, 32)   0           pool_1b_2[0][0]                  
__________________________________________________________________________________________________
conv_2a_1 (Conv2D)              (None, 33, 46, 64)   18496       drop_1a_2[0][0]                  
__________________________________________________________________________________________________
conv_2b_1 (Conv2D)              (None, 33, 46, 64)   18496       drop_1b_2[0][0]                  
__________________________________________________________________________________________________
conv_2a_2 (Conv2D)              (None, 31, 44, 64)   36928       conv_2a_1[0][0]                  
__________________________________________________________________________________________________
conv_2b_2 (Conv2D)              (None, 31, 44, 64)   36928       conv_2b_1[0][0]                  
__________________________________________________________________________________________________
conv_2a_3 (Conv2D)              (None, 29, 42, 64)   36928       conv_2a_2[0][0]                  
__________________________________________________________________________________________________
conv_2b_3 (Conv2D)              (None, 29, 42, 64)   36928       conv_2b_2[0][0]                  
__________________________________________________________________________________________________
pool_2a_3 (MaxPooling2D)        (None, 14, 21, 64)   0           conv_2a_3[0][0]                  
__________________________________________________________________________________________________
pool_2b_3 (MaxPooling2D)        (None, 14, 21, 64)   0           conv_2b_3[0][0]                  
__________________________________________________________________________________________________
drop_2a_3 (Dropout)             (None, 14, 21, 64)   0           pool_2a_3[0][0]                  
__________________________________________________________________________________________________
drop_2b_3 (Dropout)             (None, 14, 21, 64)   0           pool_2b_3[0][0]                  
__________________________________________________________________________________________________
conv_3a_1 (Conv2D)              (None, 12, 19, 128)  73856       drop_2a_3[0][0]                  
__________________________________________________________________________________________________
conv_3b_1 (Conv2D)              (None, 12, 19, 128)  73856       drop_2b_3[0][0]                  
__________________________________________________________________________________________________
conv_3a_2 (Conv2D)              (None, 10, 17, 128)  147584      conv_3a_1[0][0]                  
__________________________________________________________________________________________________
conv_3b_2 (Conv2D)              (None, 10, 17, 128)  147584      conv_3b_1[0][0]                  
__________________________________________________________________________________________________
conv_3a_3 (Conv2D)              (None, 8, 15, 128)   147584      conv_3a_2[0][0]                  
__________________________________________________________________________________________________
conv_3b_3 (Conv2D)              (None, 8, 15, 128)   147584      conv_3b_2[0][0]                  
__________________________________________________________________________________________________
pool_3a_3 (MaxPooling2D)        (None, 4, 7, 128)    0           conv_3a_3[0][0]                  
__________________________________________________________________________________________________
pool_3b_3 (MaxPooling2D)        (None, 4, 7, 128)    0           conv_3b_3[0][0]                  
__________________________________________________________________________________________________
drop_3a_3 (Dropout)             (None, 4, 7, 128)    0           pool_3a_3[0][0]                  
__________________________________________________________________________________________________
drop_3b_3 (Dropout)             (None, 4, 7, 128)    0           pool_3b_3[0][0]                  
__________________________________________________________________________________________________
input_3 (InputLayer)            (None, 5)            0                                            
__________________________________________________________________________________________________
flatten_3a_3 (Flatten)          (None, 3584)         0           drop_3a_3[0][0]                  
__________________________________________________________________________________________________
flatten_3b_3 (Flatten)          (None, 3584)         0           drop_3b_3[0][0]                  
__________________________________________________________________________________________________
dense_1 (Dense)                 (None, 40)           240         input_3[0][0]                    
__________________________________________________________________________________________________
concatenate_1 (Concatenate)     (None, 7208)         0           flatten_3a_3[0][0]               
                                                                 flatten_3b_3[0][0]               
                                                                 dense_1[0][0]                    
__________________________________________________________________________________________________
dense_4_1 (Dense)               (None, 2048)         14764032    concatenate_1[0][0]              
__________________________________________________________________________________________________
dense_4_2 (Dense)               (None, 1024)         2098176     dense_4_1[0][0]                  
__________________________________________________________________________________________________
dense_4_3 (Dense)               (None, 128)          131200      dense_4_2[0][0]                  
__________________________________________________________________________________________________
dense_4_4 (Dense)               (None, 1)            129         dense_4_3[0][0]                  
__________________________________________________________________________________________________
output (ScaleLayer)             (None, 1)            0           dense_4_4[0][0]                  
==================================================================================================
Total params: 17,935,665
Trainable params: 17,935,665
Non-trainable params: 0
__________________________________________________________________________________________________

           Optimizer : Adam
_________________________________________________________________
…
