Title: tanh_adam_0.0001 


_________________________________________________________________
Layer (type)                 Output Shape              Param #   
=================================================================
input_5 (InputLayer)         (None, 75, 100, 1)        0         
_________________________________________________________________
conv_1_1 (Conv2D)            (None, 73, 98, 32)        320       
_________________________________________________________________
conv_1_2 (Conv2D)            (None, 71, 96, 32)        9248      
_________________________________________________________________
pool_1_2 (MaxPooling2D)      (None, 35, 48, 32)        0         
_________________________________________________________________
conv_2_1 (Conv2D)            (None, 33, 46, 64)        18496     
_________________________________________________________________
conv_2_2 (Conv2D)            (None, 31, 44, 64)        36928     
_________________________________________________________________
conv_2_3 (Conv2D)            (None, 29, 42, 64)        36928     
_________________________________________________________________
pool_2_3 (MaxPooling2D)      (None, 14, 21, 64)        0         
_________________________________________________________________
conv_3_1 (Conv2D)            (None, 12, 19, 128)       73856     
_________________________________________________________________
conv_3_2 (Conv2D)            (None, 10, 17, 128)       147584    
_________________________________________________________________
conv_3_3 (Conv2D)            (None, 8, 15, 128)        147584    
_________________________________________________________________
pool_3_3 (MaxPooling2D)      (None, 4, 7, 128)         0         
_________________________________________________________________
flatten_3_3 (Flatten)        (None, 3584)              0         
_________________________________________________________________
dense_4_1 (Dense)            (None, 2048)              7342080   
_________________________________________________________________
dense_4_2 (Dense)            (None, 1024)              2098176   
_________________________________________________________________
dense_4_3 (Dense)            (None, 128)               131200    
_________________________________________________________________
output (Dense)               (None, 1)                 129       
=================================================================
Total params: 10,042,529
Trainable params: 10,042,529
Non-trainable params: 0
_________________________________________________________________

           Optimizer : Adam
_________________________________________________________________

                  lr : 0.000100
              beta_1 : 0.900000
              beta_2 : 0.999000
…
